Assets/NNModels/Hummingbird-5000192.onnx (onnx, 318541 bytes, 7 tensors)

network_body._body_endoder.seq_layers.0.weight f4 [256, 46]
000000 62 5d 30 3e fa fa f1 3d f9 6d 17 be ff 02 53 3d
       0.17223123 0.11815448 -0.14788045 0.05151653
000010 3c b3 8d be b8 46 e9 bc 22 ec ad ba dc a9 62 be
       -0.27675807 -0.028476104 -0.0013269226 -0.22135109
000020 f0 39 2e be c8 00 59 3d 0f e0 08 3c 1b 6d 96 3d
       -0.17014289 0.05297926 0.008354201 0.07345029
000030 be a3 3b 3d d7 5b fc bd 0c a1 35 3e d4 66 5d be
       0.045810454 -0.123222046 0.17737216 -0.21621257
000040 79 92 50 3e c2 9f bc 3d 2d 4e 15 3e b4 58 ee bd
       0.20368375 0.09210159 0.14580603 -0.116380125
000050 73 32 7b 3d 45 80 65 be fa f6 cb be 1d 19 63 3c
       0.06132741 -0.22412212 -0.39836866 0.013860968
000060 e0 45 d1 bd 00 ad d5 bd 46 81 68 bd ad d6 e3 be
       -0.10218406 -0.10433388 -0.05676391 -0.44499722
000070 f4 2b 7f be bf d0 16 bd f4 9b e7 bc d8 dd 04 bd
       -0.2491911 -0.03682017 -0.028272606 -0.03243813
000080 31 bc a5 3c fb db f0 bd 98 6c 22 3d 38 1c dd 3b
       0.020231338 -0.11760708 0.039654344 0.0067477487
000090 3c 9e 34 bd f7 81 44 3e 8e df 77 3e 16 00 5f 3d
       -0.044096217 0.19190203 0.24206373 0.05444344
0000a0 f4 96 5b 3e 8d e8 ba 3b c0 75 65 3e 1b 1b e8 3b
       0.21444303 0.0057039917 0.224082 0.0070833093
0000b0 9d cb 8e 3e d8 20 e0 bd cd d0 26 be 84 da a8 3d
       0.2788972 -0.109437644 -0.16290589 0.082448035
0000c0 4a 98 8f 3d 86 b3 10 bd d5 ec d9 3c 05 25 6c 3d
       0.07011469 -0.035327457 0.026602188 0.057652492
0000d0 3b 23 33 3e 14 71 30 3e 90 a3 52 be 75 5d b3 be
       0.17493908 0.17230636 -0.20570207 -0.3503224
0000e0 8a c3 bb bd 98 13 c4 3e a3 7d 2b 3e 4f 4f 55 bd
       -0.091681555 0.382962 0.16747145 -0.052077588
0000f0 21 c3 5a 3a ac 29 92 3d 6d b2 7a bd 1c 1b ea bd
       0.00083451165 0.071368545 -0.061205316 -0.11430952
000100 f8 86 e1 bd 36 a1 a4 3d 05 be 1e 3e f7 4e 98 bd
       -0.11012071 0.08038561 0.15502174 -0.07436936
000110 31 be fd 3c 6e 3a 9a 3d 75 13 92 3e 53 d4 ab bd
       0.03097448 0.07530676 0.2853047 -0.08390107
000120 c7 f3 39 3e 0a 5c 6c bc af d3 49 be 24 bb 43 bd
       0.181594 -0.014426241 -0.19709657 -0.047785893
000130 48 11 62 3e 71 d1 b5 3d dc 8d 86 3e 21 94 df 3c
       0.22076905 0.088778384 0.26280105 0.027292313
000140 6b 28 a4 bd 54 88 17 3d b3 08 a9 3d 44 ee 1c 3e
       -0.080155216 0.036995247 0.08253612 0.15325266
000150 16 f4 01 3e f3 d5 61 be 59 d5 04 3d a1 8e f2 3d
       0.12690768 -0.22054271 0.032430027 0.118436106
000160 66 7c 3c 3e de 11 e1 bd 4b b3 53 bd b1 ec de bd
       0.18406829 -0.10989736 -0.05168466 -0.10884989
000170 31 66 6a 3e 4c 0e 86 3e 14 08 bf bd e7 ac ed bc
       0.22890545 0.26182783 -0.09327713 -0.02901311
000180 eb 61 78 3e 63 37 d3 3c ad 54 9b 3d 8e 90 16 bd
       0.24256103 0.025783246 0.0758451 -0.03675895
000190 3f 7d 6c be 35 eb d2 bc 47 52 32 bd b2 8e 1d be
       -0.23094653 -0.025746921 -0.043535497 -0.15386465
0001a0 fa 4e 75 3e ec 59 43 be 25 00 f9 3d a7 31 93 3d
       0.23955908 -0.19077271 0.12158231 0.07187205
0001b0 23 f0 1c 3d eb f6 06 3c 7d cd 03 3e 8b 33 82 bd
       0.03831495 0.008237581 0.12871356 -0.06357487
0001c0 f3 35 bd bd f0 59 35 bd 62 a9 43 3e ca 51 15 3d
       -0.092388056 -0.044275224 0.19107583 0.036454953
0001d0 d8 1c 50 bd 6e 55 e4 3b fb 3a eb bd 49 7a 8a bd
       -0.050808758 0.006968192 -0.11485859 -0.06761605
0001e0 fa b3 a9 3e 79 5b d7 3d cb 52 2f 3e 76 f3 36 3d
       0.33145124 0.10515494 0.17121427 0.044665776
0001f0 43 6a 3b be 70 9e a9 be 39 df 31 3e 13 fc 52 bc
       -0.18302254 -0.3312869 0.17370309 -0.012877482
000200 74 4f 55 3e a1 ed 9b 3e e8 6d 51 3e 6d de 07 3e
       0.2083109 0.30454734 0.20452082 0.13268442
000210 32 76 aa bd 3b 2c 47 3b 00 ad 04 3f 68 ca 93 3d
       -0.08323325 0.0030391354 0.5182648 0.0721634
000220 7d 51 bd 3d ea c1 f4 bd cb 69 1f 3e e0 f4 0f bd
       0.09244058 -0.11951049 0.155677 -0.03514564
000230 4b 47 1f be c1 78 94 be 7a de 86 bd 15 0c 21 be
       -0.1555454 -0.28998378 -0.06585403 -0.15727265
000240 4d 4f e5 3c 1c 9a 65 be 76 23 3d 3d 2f 92 d1 3d
       0.027991915 -0.2242207 0.046176396 0.102329604
000250 0f c2 d4 bd 31 eb 54 be 45 79 0f 3e 7e e8 43 3e
       -0.10388576 -0.20792843 0.14011104 0.19131657
000260 b2 ed 62 3d 2d 40 85 3d 97 6e f8 3d 4e 23 23 bd
       0.055402465 0.06506381 0.12130468 -0.03982859
000270 28 cd 27 be c7 8a ef 3c 6b b4 8b 3c 05 85 45 3e
       -0.16386855 0.029240979 0.017053803 0.19289024
000280 f6 7c 24 3e f8 84 e3 3c ec cb 29 bd e7 1e d7 3d
       0.16063294 0.027773365 -0.04145424 0.10503941
000290 61 21 07 3e 2e f7 f6 3d fc a3 33 be 72 03 ed 3d
       0.13196327 0.120588645 -0.17543024 0.11572923
0002a0 ae fd b6 3e bd fd a2 bd 64 c9 d0 3b 78 60 05 be
       0.35740417 -0.07958553 0.006371664 -0.13025081
0002b0 9c 8e 28 bc f2 2e 60 be d4 02 18 be 5b 18 52 3e
       -0.010287907 -0.21892908 -0.14844829 0.20517103
0002c0 c3 4d 17 be 9b 2b ae bd 53 fd 81 be ed db 64 3e
       -0.14775757 -0.08504411 -0.25388584 0.2234952
0002d0 e5 08 3b bd 03 fc 6f be 94 8f 2b 3e 0e ca 5d be
       -0.04566278 -0.23435979 0.1675399 -0.21659109
0002e0 31 3c a7 3d 4d cd f3 3d 79 e8 cb bd c8 62 65 bc
       0.081657775 0.119043924 -0.0995645 -0.014000602
0002f0 5c c3 d4 bb 67 e6 18 bd 5e 9a 2b 3d 83 0a b7 bd
       -0.006493015 -0.037329104 0.041895263 -0.08937552
000300 65 89 58 3e cb fb 12 3e ae 1f e3 bd 88 a8 21 3d
       0.21146162 0.14353864 -0.11090027 0.039467365
000310 30 88 70 bd 79 87 d6 3c 1c 55 07 3c 66 1e 1c be
       -0.05872363 0.026187645 0.008260038 -0.15245971
000320 13 69 05 3d c9 ca 65 bb a1 07 27 3d 3a 11 4b bd
       0.03257091 -0.0035063496 0.04077876 -0.049576975
000330 fc dc a5 3b 12 f6 a0 bd 2c 5f 4c 3e 7f fb 3a bd
       0.005061744 -0.07859434 0.1995818 -0.04565
000340 d5 2d 73 3e 41 1d d1 bd 1d 58 4f bd e2 9d 3b be
       0.23747952 -0.10210658 -0.05062114 -0.18321946
000350 91 14 9c be a8 98 80 3e 58 aa 86 be ef 78 d5 3d
       -0.3048444 0.25116467 -0.26301837 0.10423457
000360 0a 6d 3f bb 32 99 44 3d 58 b2 bb 3d e3 69 38 3d
       -0.002920928 0.04799766 0.09164876 0.045022856
000370 85 ec 51 bc f0 ec 29 3e 85 86 0d be 08 27 b3 3d
       -0.012812738 0.1659429 -0.13820846 0.08747679
000380 3a ad 13 3e 52 13 6f bd 6f d6 38 3d eb 6e f7 be
       0.1442155 -0.058368035 0.045126375 -0.4832681
000390 e4 26 b4 3e 7b ee 56 be 87 8d c3 bc 62 a5 42 3e
       0.3518592 -0.2098941 -0.023871196 0.19008401
0003a0 01 bb b2 bb 5e 78 58 3e d2 65 dd bd 0f 4d 1f 3e
       -0.0054544215 0.21139666 -0.10810436 0.1555674
0003b0 d2 49 45 3e 16 77 5f 3d 94 68 d2 bd 01 6b 6f bb
       0.19266441 0.05455693 -0.10273853 -0.0036532285
0003c0 f9 51 5e 3e 0c a2 95 3c 3a fe ac 3c 14 3a 35 3e
       0.21710958 0.018265747 0.021117318 0.17697936
0003d0 d7 57 ae 3d 21 1f ab bc 3d e1 a6 3c 4e f4 20 be
       0.08512848 -0.020888867 0.020371074 -0.15718195
0003e0 8b 13 27 bd 5c f6 32 3d 90 f4 31 be 36 f2 87 bc
       -0.040790122 0.043691978 -0.1737845 -0.016594987
0003f0 71 81 26 3e 5f ae ec bd 30 fb 92 be 45 9d 4a be
       0.16260315 -0.11556696 -0.28707266 -0.19786556

network_body._body_endoder.seq_layers.0.bias f4 [256]
000000 8c 30 44 3b 8a 17 82 3c 45 d6 f4 3c 71 e1 be 3c
       0.0029936163 0.015880365 0.029887328 0.023300858
000010 c2 bc e2 3c 8f 74 6e 3c 30 73 f2 bb c4 37 7e bb
       0.027677897 0.014554157 -0.0073989853 -0.0038790563
000020 6d 16 49 3c bf 92 80 3a 2a 2a 4c 3d 9c 1b 53 39
       0.012273413 0.0009809359 0.0498449 0.00020132813
000030 cd 02 c7 3c 4b 4d 87 3b ab d8 96 3b 81 c6 56 3d
       0.024293328 0.004129087 0.0046034656 0.0524354
000040 fb 03 e8 3b 09 b0 a8 3c 85 d2 d2 3c df a2 c4 3c
       0.0070805526 0.020591753 0.02573515 0.024003444
000050 8e 4b 60 3c 24 97 31 3b db e7 9f 3b c9 9e 01 3d
       0.013689889 0.0027098143 0.0048799342 0.03164557
000060 81 78 10 3c 2e 20 da 3c 4e c4 b8 3b ce 23 ce 3b
       0.008817793 0.026626673 0.0056386357 0.0062908893
000070 f9 09 e9 3b db eb 03 3d 07 1a 5f 3c 7c 7c 23 3d
       0.0071117845 0.03220735 0.013617045 0.03991364
000080 05 f4 b2 3a df 90 9d 3c d0 48 df 3c 5e eb 4a 3d
       0.0013653046 0.019234119 0.0272564 0.04954087
000090 9a c3 b0 bb ec de ed 3b e6 0a 52 3b 0a 9d 46 3b
       -0.0053944113 0.0072592404 0.0032049953 0.0030306005
0000a0 9b f9 84 3c da 6d 18 bc 89 a4 61 3d 6f 07 01 3b
       0.016232302 -0.009303534 0.055088554 0.0019688269
0000b0 5e 35 df 3c 2f ff 87 3b d0 66 e9 3b 30 39 1f 3c
       0.027247127 0.0041502933 0.007122852 0.009718224
0000c0 06 ac 7f 3c 74 ab c9 ba cc 57 96 3c 49 42 d1 3c
       0.015604978 -0.001538618 0.018352412 0.025544303
0000d0 57 28 2a 3c 2a 08 2c 3c 0d 02 82 3d 67 73 3f 39
       0.010385594 0.010499993 0.063480474 0.0001825817
0000e0 e2 27 29 3c 7a e8 a9 3c 2d 65 40 3c d7 94 8c 3c
       0.01032445 0.020740736 0.011742872 0.017160816
0000f0 0e 79 9b 3c cf 5c 6f 3c cc d9 03 3d a2 60 bb 3c
       0.018978622 0.01460953 0.03219013 0.022873227
000100 3d a4 8d ba b0 c4 58 3c 1a 8c 84 3c 56 db 41 bc
       -0.0010806393 0.013230488 0.016180087 -0.011832079
000110 f3 66 0f 3c 43 ec 73 bb 6c bb 7f 3c c0 a3 61 3c
       0.008752572 -0.003721968 0.01560865 0.013771951
000120 8d c5 33 3c 98 e1 e5 bb 82 1b 00 3d 6c 0b 85 3c
       0.010972393 -0.0070154183 0.031276233 0.016240798
000130 63 1e bf 3b 47 8e c6 3b f8 8d 13 3d 27 71 95 3c
       0.00583248 0.0060594412 0.036024064 0.018242432
000140 60 bf a8 3c 35 9a 0a 3d 39 67 3d 3c f1 7d 90 3c
       0.020599067 0.03383847 0.011560255 0.017638179
000150 cb 54 7a 3b 0c de 1b bc 43 6b 7f 3c 93 a7 75 3c
       0.0038197513 -0.009513389 0.015589538 0.014993566
000160 3e 98 b3 3c 25 b5 f3 3c 42 a9 02 3d 09 08 83 bc
       0.02192318 0.029749462 0.031899698 -0.015995042
000170 5c d0 a3 3c 45 41 be 3c fa 6e 84 3b bb 3f 13 3b
       0.019996814 0.023224482 0.0040415497 0.0022468406
000180 0e 26 84 3c 85 14 24 3c 71 ce 18 3b 1c 28 7b 3c
       0.016131427 0.010014658 0.0023316408 0.015329387
000190 46 68 a6 ba 72 98 eb 3c 5e 5e 8c 3c 1c 1c 85 3b
       -0.0012695871 0.028759215 0.017134842 0.004062189
0001a0 a6 7a d1 3c 1a 35 54 3c 81 c9 c7 3c a1 94 b5 3c
       0.025571179 0.0129521135 0.024388077 0.022165598
0001b0 37 dc 45 bb f4 a0 a7 3c 2f 4b 0c 3d dc 6d fc 3b
       -0.0030191073 0.02046249 0.03425139 0.007703526
0001c0 d6 ee 75 3c 0c 63 2c 3d a8 65 0e 3c 73 9c 8d 3c
       0.015010556 0.042086646 0.008691229 0.017286515
0001d0 4a a2 4e 3c 7c 46 04 3d 83 67 e1 3c 72 81 9e 3c
       0.012611935 0.03229378 0.027515179 0.019348834
0001e0 e6 80 16 3d e7 20 26 3d 4a 34 5d 3c f7 e1 cc 3c
       0.03674402 0.040558722 0.013501236 0.025010092
0001f0 83 97 f7 3c 46 12 97 3b a6 3e 6e 3c c3 78 7c 3c
       0.030223614 0.0046103327 0.014541304 0.015409651
000200 ac fc 20 3c a3 fe 19 3d db 32 05 3c 3c dd 82 3c
       0.009825867 0.037596356 0.008129801 0.015974633
000210 89 bc 94 bb 1b 0a f6 3c 53 3c e5 bb 2e a5 e9 bb
       -0.0045390767 0.030034116 -0.0069957166 -0.0071302867
000220 17 3d e8 3c 17 b7 88 3c 0e fd db 3b 38 3b 9d 3c
       0.028349442 0.016688867 0.006713516 0.019193277
000230 7a 6b 10 3d c8 f0 0b 3d d6 a7 c3 3b 81 19 17 3d
       0.035258748 0.034165174 0.0059709353 0.036889557
000240 f8 6d 79 3c e4 1d 01 3d 98 58 de 3b 7b 7d e1 3c
       0.0152239725 0.031522647 0.0067854635 0.027525654
000250 e4 11 eb 3c e8 13 49 3c 7f 54 fa ba f3 cd 8f 3c
       0.028695054 0.012272812 -0.0019098668 0.017554259
000260 b8 c3 d7 3c 17 a8 9a bc 77 2b 28 3c 81 c0 c8 bb
       0.026338443 -0.01887898 0.010264269 -0.006126464
000270 21 0f 97 3b 91 2c 30 3b 1c 84 92 ba 5d 7f 25 3c
       0.004609958 0.0026882032 -0.0011178288 0.010101167
000280 a5 93 d4 3a 64 62 18 3d 5b ab 74 3c cf 52 9a 3c
       0.0016218318 0.037203208 0.014933432 0.018838314
000290 88 01 57 3c 9c 14 fb 3c d2 aa e8 3b 4b 3d f8 3b
       0.013122924 0.030649476 0.0071004415 0.007575666
0002a0 4d a9 c6 bb c6 dc 84 3a 30 4c 80 3c a0 b6 2d bc
       -0.0060626627 0.0010136596 0.015661329 -0.010602623
0002b0 44 0a 39 3c 7a e7 75 3c e5 34 04 3d 9c 66 a4 3b
       0.011293951 0.015008802 0.032277007 0.005017115
0002c0 5f 63 00 3d b5 08 76 bb 89 99 10 3d 86 e6 95 ba
       0.031344768 -0.003754181 0.035302673 -0.0011436499
0002d0 b3 5e 4a 3d ce a8 4d 3c 76 6d c0 3b 28 5d 25 3c
       0.04940672 0.012552453 0.0058724238 0.010093011
0002e0 8a 1d 17 3c cd 5d a7 3c 2c dd 81 3c c2 87 32 3d
       0.009223351 0.02043047 0.015852533 0.0435865
0002f0 0d 17 22 3d 53 48 14 bb 0c f8 91 3a fb 7a 0c ba
       0.039572764 -0.0022626116 0.0011136546 -0.00053589017
000300 35 05 d2 3c 17 bb 90 bc 1a b6 63 3c 9b fa 1f 3d
       0.025637249 -0.017667336 0.013898397 0.039057355
000310 b9 9b 80 3c 58 a6 db 3c 7d 8a ba 3c f1 de 05 3d
       0.015699254 0.026812717 0.022771114 0.032683317
000320 b4 ad 42 3d ed e4 8d 3b d3 e9 f8 3b 04 35 d0 3c
       0.047528937 0.0043302686 0.0075962334 0.025415905
000330 ce 4c 71 ba 9b d7 17 3d 0a fe 10 3d 2a b1 ee 3c
       -0.0009204865 0.03707085 0.03539852 0.029137213
000340 4a ce 1b 3d 12 8c be 3c cb ca f7 3c dc 48 2b 3c
       0.03803853 0.02326015 0.030248066 0.010454383
000350 b6 e8 59 3c 28 db c1 bb c6 80 f5 3c 3d ca 21 3c
       0.0133001115 -0.005916018 0.02996863 0.0098748775
000360 59 fc b1 bc 6d f3 6f 3c 4d 76 9c bb 26 12 0d 3a
       -0.021726774 0.01464544 -0.0047748447 0.00053814275
000370 1b bc 78 bc 33 8a 20 3b bd f5 e5 3c cc f0 19 3c
       -0.015181567 0.0024496436 0.028071279 0.009395789
000380 98 15 62 3c 41 fc 93 3c ed 3a 57 3c 72 b2 2a 3d
       0.013799094 0.01806462 0.013136608 0.041674085
000390 80 60 e7 3c 7f 20 01 bb b5 04 64 3c c6 3f 37 3b
       0.028244257 -0.0019703207 0.013917138 0.0027961596
0003a0 55 1f 88 3c af b8 89 3c 3d 7d f1 3c a3 68 d0 3b
       0.016616503 0.016811697 0.029478664 0.00636013
0003b0 93 8b 96 39 34 bb 24 ba 01 ca 80 3c dc 17 4f 3c
       0.0002871422 -0.0006283999 0.015721323 0.012639966
0003c0 c1 c3 9f 3c d0 0c f0 3b 8f b0 5d 3c 04 72 d1 3b
       0.019502522 0.007325746 0.013530864 0.0063917655
0003d0 7e ee 18 3c dc d1 c3 3c 66 c9 c6 3b 5a 5b d5 3c
       0.009334205 0.02390378 0.006066489 0.026044536
0003e0 ed 49 5b ba 3d 04 6d 3c ca 13 56 3d 0f 36 9c 3c
       -0.0008365203 0.0144663425 0.052264966 0.019068746
0003f0 eb b2 9f 3c db 37 9b 3d 29 f4 33 3c cc ac fb ba
       0.019494494 0.07579013 0.010983505 -0.0019201278

network_body._body_endoder.seq_layers.2.weight f4 [256, 256]
000000 73 93 ca bc f7 85 02 be a9 35 0a bd a9 b8 d9 bd
       -0.024728512 -0.12746416 -0.03374258 -0.10630924
000010 d8 d5 2d be 82 0d 86 bd 03 f2 26 3d 1b 7e 12 3b
       -0.16976106 -0.06545545 0.040758144 0.0022352997
000020 ab fa 9d 3b fb cb 58 bd d3 a8 af 3d 82 a7 01 3e
       0.0048211417 -0.052928906 0.085771225 0.12661555
000030 7d a3 cf bb 0d 1f 37 3c 7b 42 4e bd 2f 9e 84 bd
       -0.006336628 0.011176837 -0.05035637 -0.064754836
000040 60 6b b9 3d de 8a 80 bd e7 fc 87 3c 1d 33 6d bd
       0.09053683 -0.06276487 0.016600085 -0.057910074
000050 7e 2e ed bd ee 28 b4 3d e7 a9 50 3c 2d 63 7b 3d
       -0.11581133 0.08796869 0.01273582 0.06137388
000060 04 ed 8c 3d e0 01 0e bd d2 3e 21 3e e5 05 16 bd
       0.06881145 -0.034669757 0.1574662 -0.036626715
000070 01 a5 88 bd 3c 5f 24 bd 66 13 af bc 62 c4 da 3c
       -0.06672097 -0.040129885 -0.021371555 0.02670497
000080 0f d2 b9 bd 34 27 8b 3b 8e e1 a6 3c 2f 75 2b be
       -0.090732686 0.0042466167 0.020371225 -0.1674392
000090 d8 8a d3 3c cf a1 8d 3d 87 c2 07 bd 12 19 33 3c
       0.025823042 0.06915628 -0.0331445 0.01093127
0000a0 08 d9 01 be 4d 74 a6 3d 27 f2 a1 3d 24 b4 04 be
       -0.12680447 0.08127651 0.07907515 -0.12959343
0000b0 ba 05 f4 3b 1e 3d 91 bc 53 06 4a 3d 33 9a 4b bd
       0.0074469717 -0.017729338 0.049322437 -0.049707603
0000c0 fb 12 0e 3e 19 37 eb 3d b0 27 c0 3d 36 74 8d 3d
       0.13874428 0.114851184 0.0938257 0.06906931
0000d0 4c c3 aa bd af 05 84 bd 34 b8 35 bd 68 72 ff bd
       -0.08338031 -0.064463966 -0.044365123 -0.12472993
0000e0 b1 c8 dc 3c 74 20 ab 3b ca 21 a1 bd 34 2c 57 3d
       0.026951166 0.0052223746 -0.07867773 0.05253239
0000f0 b2 78 28 3d 7b 1c c2 3d 1c 9f c7 bd df 4c d6 bc
       0.04113073 0.094780885 -0.097471446 -0.026159702
000100 fd 1c 25 3b 6a b2 19 bd 54 bd 22 bd 89 eb 3d bc
       0.002519428 -0.037523665 -0.03973134 -0.0115918005
000110 ce 97 d9 3d 16 ca 32 3d 58 c1 18 bc 31 09 25 bc
       0.106246576 0.043649755 -0.0093234405 -0.010072992
000120 bc 85 33 be 53 ff 0b bc 46 ed 7b 3d 90 3f 75 bc
       -0.17531484 -0.008544761 0.06150558 -0.014968768
000130 fd 5c 24 bc dd 18 1e bc e4 54 e1 bd 26 13 2f 3b
       -0.010031936 -0.009649483 -0.1100252 0.0026714294
000140 4c 2d b6 3d f7 fc 16 3d e5 cc 8f 3d 5f ec bb bb
       0.088953584 0.03686234 0.070215024 -0.0057349647
000150 54 03 5c bd 4a 44 35 bd fa d5 5e 3d f4 63 d1 3d
       -0.05371411 -0.04425458 0.054403283 0.10224143
000160 f4 a2 25 3d c5 4c d0 bd 25 54 7f bd 14 7b d0 3d
       0.040438607 -0.101708926 -0.062336106 0.10179725
000170 4d 9e d7 bd ae 29 9c 3d f3 30 86 bd a2 ea ae ba
       -0.1052824 0.07625137 -0.06552305 -0.0013345073
000180 72 82 34 bd 23 8f a2 bc e3 ad 9a 3c 94 ea 43 3d
       -0.044069715 -0.019843644 0.018881744 0.047831133
000190 9d 32 74 bc 1c fd 3a be 0f 9b d7 3c c1 33 79 bb
       -0.014904645 -0.18260616 0.026319055 -0.0038025232
0001a0 70 0c 2c bc b7 06 6d 3d b1 6c f9 3d 5a 0b da 3c
       -0.010501012 0.057867732 0.12178934 0.026616741
0001b0 08 48 84 3d 84 63 8a bd 24 d0 51 3d cf a8 94 3c
       0.06459051 -0.06757262 0.05122389 0.0181469
0001c0 f1 61 14 bc 58 17 16 bb 13 30 fa 3c 2d 35 ec 3d
       -0.009056554 -0.0022902098 0.030540502 0.1153358
0001d0 93 53 0a bc 97 31 75 bd e7 88 5b 3d 36 4c ae 3d
       -0.008442777 -0.059861746 0.053597357 0.0851063
0001e0 72 8d a2 bd 74 94 91 bd 2b e5 0b 3c 4b ff 87 bd
       -0.07937135 -0.07108393 0.008538525 -0.0664049
0001f0 91 11 ae bd b6 1e 72 3c b0 6a 36 3d 64 c1 43 3d
       -0.08499444 0.01477783 0.04453534 0.047791854
000200 36 a6 50 bd 1d 3e 9d bc fd b3 0d 3e c5 59 16 3d
       -0.05093976 -0.019194657 0.13838191 0.036706705
000210 77 cd 1a 3c a8 37 a8 bd 0f 7d 39 3d 0e 01 d2 bd
       0.009448401 -0.082137406 0.04528528 -0.102541074
000220 1e 75 c3 bc 12 d4 a7 bd 7e 4d 88 bd a6 4f a0 3c
       -0.023859557 -0.08194746 -0.066554055 0.01956923
000230 7c e2 94 3d 92 6c c2 bd 25 3d b3 3c 27 fb d1 3d
       0.07269761 -0.094933644 0.021879742 0.10252982
000240 94 90 df 3d fb 3a 82 3d 28 08 bb bd 46 59 e2 3b
       0.10916248 0.06358906 -0.09132415 0.006907615
000250 06 e2 26 be f9 a5 29 bd 43 10 05 bd df 3b 88 3d
       -0.16297159 -0.04141805 -0.03248621 0.066520445
000260 d7 57 c1 3c b7 24 75 3d 1e 3c ba 3d 74 54 57 3d
       0.023601456 0.059849467 0.09093498 0.052570775
000270 64 b4 9d 3c b9 e3 3c bd dc a5 c3 bc 96 d2 3b bd
       0.019251056 -0.04611561 -0.023882799 -0.045855127
000280 a6 fc 66 3d 1c e7 e4 bd 83 92 6d bd 03 cb 23 3d
       0.056393288 -0.11176893 -0.058001053 0.03998853
000290 c0 8f 87 bc 98 54 7b bd 95 f1 8f bd 26 04 41 bd
       -0.016548038 -0.06135997 -0.070285 -0.047123097
0002a0 c8 e6 0a 3d 4b 57 b2 bc a8 6a 89 3c 00 4d 33 3d
       0.033911496 -0.02177014 0.01677449 0.043774605
0002b0 40 a2 25 bd 50 b5 48 bd 47 b0 0d 3d db 11 84 bd
       -0.040437937 -0.049001038 0.03459194 -0.06448718
0002c0 c6 17 0b 3d 14 4a 11 bc c2 84 a5 bc 39 30 b2 3b
       0.03395822 -0.008867759 -0.020204905 0.0054378775
0002d0 3e ef 51 3d 71 30 2d bc b0 be b8 3d ad f8 18 3d
       0.05125355 -0.010570631 0.09020746 0.03734653
0002e0 ce 59 35 bd ab 52 e0 bc d7 4f 91 bc 1a 36 05 bd
       -0.044275098 -0.02738317 -0.017738266 -0.0325223
0002f0 4a 14 e9 3d 4b 84 65 3d 4e ff 0c 3e 07 74 1b 3e
       0.11380823 0.056034368 0.13769266 0.1518098
000300 77 fb 88 bd 26 54 43 bd 4a 60 cc bb 19 da 01 3e
       -0.06688588 -0.047687672 -0.0062370645 0.12680854
000310 36 bd b5 bd 8d eb 8a 3a 43 06 1d bd af a5 2b 3d
       -0.0887398 0.0010598764 -0.03833605 0.041906055
000320 39 ec c7 bd 65 86 00 be 3a 2a 17 3c 33 90 2d 3d
       -0.09761853 -0.12551267 0.009226376 0.042373847
000330 82 e8 dc 3c 1f 87 c4 bd 88 8b 3d bd c7 57 f8 bb
       0.026966337 -0.09596085 -0.046275645 -0.0075788232
000340 dd a4 01 bd b3 94 17 be 3a a9 8d bd 71 33 81 bd
       -0.031651367 -0.14802818 -0.06917043 -0.0630864
000350 d0 26 a7 bd bf 28 35 3d 5f 89 4e bd 4f fc e0 3c
       -0.081617 0.04422831 -0.050423976 0.02746406
000360 82 bf f6 3d 63 33 4d bc 79 41 86 3c e0 b7 4d bd
       0.12048246 -0.012524459 0.016388642 -0.050224185
000370 99 b2 0f 3d 64 3f 2b 3c ef 3f 08 be 48 52 1f 3e
       0.035082433 0.010452125 -0.13305639 0.15558732
000380 6f f4 ed bb 06 f7 3b 3b 72 fc 1d bd 5e a6 00 3d
       -0.007261805 0.0028681173 -0.03857083 0.03140866
000390 84 74 e8 3c 6f 24 88 bb a7 9a 03 be 1e ba 0a 3d
       0.028375871 -0.004154734 -0.12851964 0.0338689
0003a0 01 69 db bd ab b6 ea 3c e3 5f 34 3d 65 69 80 bd
       -0.10713387 0.028651556 0.044036757 -0.062701024
0003b0 76 06 4d 3d 9a 1b ce 3d 48 a9 ef 3d 45 52 e3 bc
       0.05005499 0.10063858 0.1170221 -0.02774919
0003c0 63 4e d1 3d c5 2b f4 bc 0e 9b 44 bd a0 0f ac 3d
       0.10220029 -0.029806027 -0.047999434 0.08401418
0003d0 96 ab 2c 3d cc 83 a7 3d 47 9d fd bd c9 2e 6e 3b
       0.042155825 0.08179435 -0.12383514 0.0036343804
0003e0 76 e2 ae 3d b5 ee 41 bc 54 13 1d be 0c 5d 08 bd
       0.08539288 -0.011836697 -0.15339404 -0.03329186
0003f0 5d c3 45 bd ab c9 28 be 4a c1 bb bd 1d f7 b5 bd
       -0.048282016 -0.1648318 -0.09167726 -0.08885024

network_body._body_endoder.seq_layers.2.bias f4 [256]
000000 c0 f5 d8 3a 1e 36 81 3c a9 5f 8b 3c 0d 6b d0 3c
       0.0016552731 0.015772875 0.017013388 0.02544167
000010 7e 2f 31 3c 47 62 95 3c e1 36 72 3a 28 87 06 3c
       0.010814546 0.018235339 0.0009239745 0.008210935
000020 3d bc 40 3c 55 37 e9 3b 06 25 45 b9 f0 d1 9c 3c
       0.0117636295 0.007117192 -0.00018801176 0.019143075
000030 db 24 90 3b 10 1e 91 3c cd 3b b9 3c f4 56 e5 b4
       0.0043989248 0.01771453 0.022611523 -4.271784e-07
000040 34 da 93 3c f0 78 65 3c fb 7f 83 3c 00 01 26 3d
       0.018048383 0.0140058845 0.016052237 0.040528297
000050 2d c9 ab 3c 05 76 1c 3c a8 85 c8 3b 01 0b 08 3c
       0.020969952 0.009549622 0.0061194487 0.008303405
000060 5f e8 90 3c c8 51 d0 bb e1 d6 d4 3c 5c 18 e1 3c
       0.017688928 -0.0063574053 0.025981368 0.027477436
000070 e9 17 b6 bc eb 43 50 3c f4 76 80 3c 3c 82 5d ba
       -0.022228198 0.012711505 0.015681721 -0.00084498874
000080 49 7e ba 3c 7b 14 8e 3c 5a 64 0e 3a 35 1b b7 3c
       0.022765296 0.01734375 0.00054318237 0.02235184
000090 25 85 4a 3c 8a de 2f 3c 7f 08 fa bb 24 8a 4b 3c
       0.012360846 0.01073421 -0.0076304073 0.012423072
0000a0 02 73 60 bb 9e ff d2 3c 40 12 6d b9 c3 00 08 3d
       -0.0034248237 0.025756653 -0.0002260888 0.03320385
0000b0 84 78 28 3c ff 6b 16 ba e8 d2 7c ba 4c 37 be 3c
       0.010282639 -0.00057381386 -0.00096444646 0.023219727
0000c0 49 a6 8a 3c bd 43 81 3c ef 8a 12 3d 54 0e 0e 3d
       0.016924994 0.01577937 0.03577703 0.034681633
0000d0 1c 79 f8 3b 92 7d 2c 3c 3d 77 55 3c 60 75 a7 3c
       0.0075827967 0.010527985 0.013028917 0.020441711
0000e0 62 d1 08 3d 87 6f 75 3c 66 90 04 3d 5e 28 8b 3b
       0.033402808 0.0149802035 0.03236427 0.0042467555
0000f0 5f c8 fe 3c cb 68 37 bc 2f 27 1c 3b 80 84 b4 3c
       0.031101404 -0.011194418 0.0023827066 0.022035837
000100 73 90 71 3b 64 65 ac 3c 2f 13 cf 3c 63 1d 95 3c
       0.003685978 0.02104444 0.025277702 0.01820249
000110 41 f0 c8 3c 02 8d 09 3d e2 a8 f4 bb f7 45 32 3c
       0.024528624 0.03358174 -0.0074664215 0.010880939
000120 27 0f 23 3c a5 5b 00 b9 04 54 87 3c 97 c2 48 3c
       0.009952343 -0.00012241171 0.016519554 0.012253425
000130 98 b8 20 3c b6 c0 02 3c 06 6b 59 ba 9c 8e c1 bb
       0.009809636 0.007980516 -0.0008293841 -0.005906893
000140 40 9d 78 bb 80 c4 c3 3b a7 bf 13 3d e4 86 27 3c
       -0.0037935525 0.0059743524 0.036071446 0.0102250315
000150 96 bf 40 bc 20 a8 5e 3c 3a bd 58 3c cc 34 64 3c
       -0.011764428 0.013589889 0.013228709 0.013928603
000160 92 d5 eb 3c d6 09 d2 3c 16 6c e6 bb 60 b1 63 3b
       0.028788362 0.025639456 -0.007031928 0.0034743175
000170 bc 3b 67 3c dc f6 47 3c ff 11 96 3c db 1d ef 3c
       0.014113363 0.012204852 0.018319128 0.02918904
000180 41 64 fe 3c 32 5d 9d 3c 8f 37 30 3c 82 45 21 3c
       0.031053664 0.019209478 0.010755434 0.009843232
000190 82 38 65 3c c4 fe 92 3c b8 ad 7b 3c bd 0e e6 3c
       0.013990523 0.017943747 0.015361242 0.0280832
0001a0 8b b4 4c bb 3a 44 f3 3b 31 60 9b 3c 13 c6 80 ba
       -0.0031235542 0.0074239047 0.018966766 -0.0009824656
0001b0 a3 05 06 3c 4c 8b 4c 3c 7a 98 2d 3c e2 16 c1 bb
       0.008180055 0.012484383 0.010595435 -0.0058926204
0001c0 0d 58 dc bb b2 37 40 3c 28 e5 8b 3b f5 fb c4 3c
       -0.0067243637 0.011732029 0.004269261 0.024045924
0001d0 35 51 33 3b a8 93 36 3c 17 a5 d8 3c fc 2c 0a 3c
       0.0027361636 0.011143602 0.026445908 0.008433577
0001e0 31 b8 a6 3b 88 2e bf 3c 4e b5 06 3c 9a 35 35 3c
       0.0050878753 0.023337618 0.008221937 0.011060143
0001f0 14 1c 79 3c c5 a2 f5 3a 39 95 ab b8 85 fd 14 3d
       0.015204448 0.0018740526 -8.18171e-05 0.036374588
000200 54 bd ee 3c 3e bf 95 3b 18 5f 83 3b 79 22 25 3c
       0.029143013 0.004569917 0.004009139 0.01007902
000210 1c de dc 3b 72 f1 5a 3c 6b d5 cb 3c 69 ab b5 3b
       0.0067403447 0.013363229 0.024882039 0.0055441153
000220 94 62 80 3c 75 ea a5 3c 3f a3 74 3c 7a 90 af bc
       0.015672006 0.0202534 0.014931499 -0.021431196
000230 7b 10 ac 3c f7 45 ed 3b 9d 67 ca 3c bd 31 c6 3a
       0.021003952 0.0072410065 0.02470761 0.0015121024
000240 cb d8 06 3d d7 38 f0 3b 9c 4e 01 3d 44 35 28 3c
       0.032921594 0.0073309946 0.03156911 0.010266606
000250 de fd e9 3c ff 1e c4 bb 10 44 aa 3b 45 40 24 3c
       0.028563436 -0.0059851403 0.005196102 0.010025089
000260 9d 94 50 ba 23 e6 ca 3c 10 eb a2 3c 38 90 81 3c
       -0.00079567154 0.02476794 0.019887477 0.01581584
000270 ba 90 e2 3c bd 69 fe 3b 3f 37 49 3c 4b b8 88 3c
       0.027656902 0.00776407 0.012281238 0.01668944
000280 1a 4f 51 3b a7 ba 11 3c c3 91 53 3c ae bf cc 3a
       0.0031938017 0.008894599 0.01291317 0.001562109
000290 7a 77 9f bb 88 bd 9d 3c 81 ff 42 3c 8d 8f 96 3b
       -0.0048665376 0.019255415 0.011901737 0.0045947493
0002a0 83 52 fb 3c f0 1e f8 3c ea 8c ac 3a 0b de cb 3c
       0.030678993 0.03028819 0.0013164554 0.024886152
0002b0 27 07 52 3c 22 fa 5d 3c 01 8a c8 3c 52 32 47 3b
       0.012819088 0.013548406 0.024479868 0.0030394983
0002c0 96 ed 52 3c 6e ad 6f 3c ce 38 4a 3b e5 f3 25 3c
       0.012874028 0.014628751 0.0030856612 0.01012895
0002d0 29 6e d5 3c b3 b9 55 3c b6 a0 84 3c a1 42 ab 3b
       0.026053505 0.013044762 0.016189914 0.0052264486
0002e0 6d 2c 37 3c 7c 71 95 3c 65 66 29 3b 41 71 6d 3c
       0.0111800255 0.01824259 0.0025848385 0.014492334
0002f0 39 cc 73 3a 54 4a 0e 3d e4 32 a2 b9 ca c9 5a 3c
       0.0009300146 0.034738854 -0.00030936964 0.013353774
000300 ca 83 22 3d 80 95 87 3c ae 7a 3c 3c 52 82 a0 3c
       0.039676465 0.01655078 0.0115038585 0.019593392
000310 f1 7b 93 3c 9c 09 20 3c f9 aa 00 bc 2d f0 14 bc
       0.018003436 0.009767916 -0.007853263 -0.0090904655
000320 db 6b 8c 3c 7e 6e 75 3b 1d 60 2d 3c 35 78 1f 3c
       0.017141273 0.0037449892 0.010581997 0.009733249
000330 4b 3a 27 3c 02 b7 aa 3c 6a a3 99 3c ec dd cb 3c
       0.010206769 0.020839218 0.01875468 0.024886094
000340 9a c3 fc 3b 65 1d 85 3c 63 9f aa 3c 44 4b 00 bb
       0.007713747 0.016249368 0.020827955 -0.0019576112
000350 8e 75 9d 3c ef 97 1a 3c 0b 93 b6 3b d3 5a db 3c
       0.019221094 0.009435638 0.005571728 0.026776707
000360 e3 82 17 3d b2 e2 f9 3c 9d eb 87 3c f3 ea 40 3b
       0.036990058 0.030503605 0.016591841 0.0029436916
000370 22 0d ff 3c 23 44 5a 3b 2f ce a7 3c 9d 43 41 3b
       0.031134192 0.0033304773 0.020484058 0.0029489764
000380 d5 a3 71 bb c0 6f a9 3c 11 ea 8e 3c 23 22 08 3c
       -0.0036871333 0.02068317 0.017445596 0.00830892
000390 c1 59 0a 3b 17 d4 49 3c cb 67 4d 3c 3c aa 01 3d
       0.0021110626 0.012318633 0.012536953 0.03165649
0003a0 72 12 84 3a 3e 4a c0 3b 2d 00 d9 3c 87 82 a1 bc
       0.0010076298 0.0058682254 0.026489342 -0.01971556
0003b0 e4 44 ad 3c 23 39 ba 3c 2e b3 4c 3c 4a 67 53 3c
       0.021151014 0.022732323 0.012493892 0.012903044
0003c0 c8 51 8d 3b a6 fa 69 3c 8d d3 4a 3c ce 00 04 3c
       0.0043127276 0.014280951 0.012379539 0.0080568325
0003d0 8b 35 8a 3c 0e 66 8e bb f0 5d 0e 3c 11 2e 1f bc
       0.016871234 -0.004345662 0.008689389 -0.009715573
0003e0 6f bc ad bb fe 13 25 39 79 39 d9 b9 ab 89 dd 3b
       -0.005302004 0.00015743074 -0.00041432286 0.006760796
0003f0 37 61 c1 3c 11 a8 e2 3b 8d 94 40 3c 29 f4 10 3c
       0.023605926 0.0069170077 0.011754167 0.008847275

action_model._continuous_distribution.log_sigma f4 [1, 5]
000000 3b 03 0a be f2 a8 cc bd 2e b3 13 be ab 3e 30 bd
       -0.13477795 -0.09993161 -0.1442382 -0.043028515
000010 34 85 10 bd
       -0.035283282

action_model._continuous_distribution.mu.weight f4 [5, 256]
000000 7c 71 a1 bd 3b 18 ba bc 4e 08 84 bd 92 a2 e4 bc
       -0.078829736 -0.022716632 -0.064468965 -0.02790955
000010 fb 8e f4 bc 00 dd 91 bd 9c f0 01 bd fd 36 14 3d
       -0.029853335 -0.071222305 -0.031723604 0.036185253
000020 aa b7 0c be 10 1e 57 3d 48 c5 d1 3c 64 f5 09 3c
       -0.13741937 0.052518904 0.025606766 0.008420322
000030 59 01 2a bd 01 10 c0 bd b6 d8 28 bd 11 bb 44 bd
       -0.04150519 -0.093780525 -0.041222297 -0.048029963
000040 58 88 73 bc 61 5c a2 bd 60 2c 1f 3c fa 3a 4f bc
       -0.01486405 -0.07927776 0.00971517 -0.012648338
000050 0e aa d6 3c 99 4c 41 3d 2a cc 8b bc c9 a0 eb 3c
       0.026204135 0.04719219 -0.017065126 0.028763192
000060 92 fa 82 b9 ea 2d 3c bc 42 af 90 3c ac f0 ce 3c
       -0.00024982222 -0.011485556 0.017661694 0.025261246
000070 7c ed 75 bc 0a 6e 33 3d 5e eb e8 3a ae da e4 ba
       -0.015010234 0.043806113 0.001777034 -0.0017460191
000080 1c 8f 14 3d c9 31 35 3d 6e d2 76 3d 34 54 28 bd
       0.036269292 0.044236932 0.060259275 -0.041095927
000090 29 3d 13 3c 79 4a 59 bd 34 39 6a 3d 59 56 68 3d
       0.00898675 -0.05304954 0.05718346 0.056722973
0000a0 cc cb 2d 3c be be dd bb e5 29 65 3d 97 bf 6f 3c
       0.010607671 -0.006767123 0.055948157 0.014633081
0000b0 ee db c5 3c 5d 20 2a 3d 8d 5f a5 bd 53 5b fc 3c
       0.024152722 0.04153477 -0.080748655 0.030805266
0000c0 7d 61 f3 3c 19 53 9d 3c 57 95 b5 3c 20 71 c1 bb
       0.029709572 0.019204663 0.022165937 -0.005903378
0000d0 05 97 55 3d d3 82 29 bd 89 0f b6 bc 43 5f 08 3b
       0.052145977 -0.04138453 -0.022224205 0.0020808734
0000e0 15 06 22 3d a8 87 1b bd b9 62 fb bb 7b a2 53 bd
       0.03955658 -0.03797117 -0.0076716808 -0.051668625
0000f0 ec d0 eb 3c 79 8c 1f bd 0e 09 eb 39 ca 4d 40 bb
       0.028786145 -0.038952325 0.0004482944 -0.002934324
000100 66 4f c4 bd fa 78 2d 3d 9b d6 16 bd c7 44 4b bc
       -0.095854566 0.0423517 -0.036825757 -0.0124065345
000110 f1 63 6b bd a8 fc 7e bd 7e ed 2e bc 08 fb e5 bc
       -0.05746836 -0.06225267 -0.01067674 -0.028073803
000120 46 4c e6 bc 86 7b b4 bc 0b 94 a0 3d 9f ba ee 3b
       -0.028112542 -0.022031557 0.07840737 0.0072854306
000130 88 04 f5 bc 80 7a 83 3d 30 9b ac bb aa 89 80 bd
       -0.029909387 0.064198494 -0.005267523 -0.06276257
000140 8c a2 04 bb 98 cf f5 3b f8 ba 2e 3d 96 6b 68 3c
       -0.0020238487 0.0075015537 0.042658776 0.014185807
000150 70 10 12 3d 64 37 da bc 45 2e 37 3c cd 2a aa bc
       0.035660207 -0.02663774 0.011180465 -0.020772362
000160 4e 10 68 3d af 17 78 bd 67 2c e8 bc a9 df 9e bb
       0.056656174 -0.06056946 -0.028341485 -0.0048484397
000170 3a ed 67 bd 32 40 1d 3c 1b 43 44 3d 69 c3 9c 3c
       -0.05662272 0.009597825 0.04791556 0.019136148
000180 07 de 87 3c 48 b0 8c 3c 6d 67 25 ba e7 c0 60 bd
       0.016585363 0.017173901 -0.0006309662 -0.054871466
000190 09 37 71 3d b8 79 d5 bc 46 cf 8b bd bb aa 4e bc
       0.058890376 -0.026059017 -0.06826644 -0.0126139475
0001a0 79 b0 7b 3c df 2d 13 3c b4 4e a8 3d 7b 15 f7 3c
       0.015361899 0.0089831045 0.082181364 0.03016161
0001b0 ad 52 21 bd 31 58 f8 bc e9 67 39 bd 9f 12 0e bc
       -0.039385486 -0.03031549 -0.045265112 -0.008671432
0001c0 be 90 a5 bc 02 6d 83 bc 52 b9 8b bc 7d 63 97 3c
       -0.02021062 -0.01604319 -0.017056141 0.018480057
0001d0 99 95 b6 3c 03 c2 37 3d dc df f6 3c c2 13 34 3d
       0.02228813 0.04486276 0.030136041 0.043964155
0001e0 53 d5 77 ba cc 99 3d bd 2c b5 31 3b 5c 01 08 3c
       -0.000945409 -0.04628925 0.0027116043 0.008301105
0001f0 f5 96 90 3d b3 29 73 3d fa bf 72 3d b6 88 1a 3d
       0.07060043 0.05936594 0.059265114 0.037728034
000200 9f d4 3e bd e4 e9 86 3c 96 9e 7c 3d c1 b2 29 bc
       -0.04658949 0.01646895 0.061674677 -0.01035756
000210 b9 55 75 bb b3 1b bd 3c b5 e4 a2 bd c6 bc df 3c
       -0.0037435128 0.023084497 -0.07953779 0.027311694
000220 c1 37 a8 bb 82 f9 8c 3d 6f 8f 12 bd e3 be e0 bb
       -0.0051335995 0.06883527 -0.03578132 -0.006858693
000230 ff 73 32 bc 75 96 93 bd ad 51 61 bb 63 ca d7 bc
       -0.010891913 -0.07206432 -0.0034380958 -0.026341623
000240 a3 63 7e bc b4 27 70 bd 29 69 65 3d 4f 92 29 3d
       -0.015526685 -0.058631614 0.05600849 0.041399296
000250 0e 36 66 bd 32 63 cd bc df 90 7d bd 6b e4 32 3d
       -0.056203894 -0.025071714 -0.061905738 0.043674868
000260 ba 60 51 bd c0 a1 60 3c 3e 33 4a 3d 6a f8 83 bd
       -0.051117636 0.013710439 0.049365275 -0.064438656
000270 01 21 c2 bc 8b 07 56 bc 1e 09 48 bc 4c 0c eb 3c
       -0.023697378 -0.013063322 -0.012209205 0.028692387
000280 22 4c 5a 3d 70 95 3f bd 54 a2 3a 3d 24 a6 ef bc
       0.053295262 -0.046773374 0.045564964 -0.029254027
000290 77 0c 5e bb 8a ac a8 bd 10 8f 71 bd c9 d2 aa 3c
       -0.0033881941 -0.08236034 -0.058974326 0.020852463
0002a0 74 7a 04 3d fa d2 07 bc 2a b5 25 bd 16 1f d2 3c
       0.032343343 -0.008290047 -0.040455975 0.025649589
0002b0 3b 33 4b 3d 1c 90 c8 bc 74 48 0c 3d 83 29 05 3d
       0.049609404 -0.02448278 0.034248784 0.03251029
0002c0 5f 94 e6 3c d9 78 ba 3b 34 d1 04 3d 2f 59 90 3c
       0.02814692 0.0056906757 0.032426074 0.017620651
0002d0 97 d4 a9 ba 77 8a b7 3b ba f0 02 bd 68 93 6d bb
       -0.0012957033 0.005601223 -0.031967856 -0.003625119
0002e0 9a 5d 18 3b cf a1 92 bd 5f 59 31 3d de a3 6f bc
       0.002324915 -0.07159769 0.04329812 -0.014626471
0002f0 fd 60 57 3d 23 c1 a4 3c e9 a6 1b bd d4 0e 35 bd
       0.05258273 0.020111626 -0.038000975 -0.044203594
000300 e2 86 3f 3d cc b8 2d 3d 34 6b 18 3c 55 4f 2c bd
       0.046759494 0.042412564 0.009302903 -0.042067844
000310 51 83 01 bb 36 c0 aa 3c 86 bc a6 3c 41 91 c3 bc
       -0.0019762109 0.020843606 0.020353567 -0.023872973
000320 f7 40 05 bd 37 60 73 bd 4c f1 6f bb c3 60 82 bd
       -0.03253266 -0.05941793 -0.003661233 -0.06366112
000330 5a 8a 85 3d 83 87 75 3a ed cb 22 3d 51 d0 b3 bc
       0.06520529 0.0009366201 0.03974526 -0.021949919
000340 71 02 96 bd 41 0a 0b 3d 04 f3 bf 3d db e9 9e bd
       -0.073246844 0.033945326 0.093725234 -0.07759448
000350 dd 0f 98 3c 18 e6 00 bd 44 e2 9f 3d df 22 5b 3d
       0.018562252 -0.031469434 0.078068286 0.053500053
000360 d1 46 57 3d 9d b5 81 3c ad fd fe 3c 84 d9 2f 3d
       0.05255777 0.01583367 0.031126821 0.04293205
000370 e2 e4 90 bd a6 5b be bd 18 ce 61 3d ad 6b 64 bd
       -0.07074906 -0.09294824 0.055128187 -0.05576675
000380 59 7c 90 3c e1 52 49 bb 60 a2 e5 3c 0f 8f e5 3c
       0.017637419 -0.0030719566 0.028031528 0.028022317
000390 a9 c1 3f 3d 4a cb fb bb 34 dd 90 bd 56 9b db 3c
       0.046815548 -0.007684146 -0.07073441 0.026807468
0003a0 3c 4f c5 3b 02 b4 3d 3d 2a 2a bf bc 52 88 f8 3b
       0.0060214084 0.046314247 -0.023335535 0.00758461
0003b0 fc 0e 35 3d a8 3e 70 3d 24 60 fa 3c cf 1f 2a 3c
       0.044203743 0.058653504 0.030563422 0.01038356
0003c0 18 94 82 bd b3 7a c9 3b ba d0 95 3c 07 47 bd 3c
       -0.06375903 0.00614866 0.018288005 0.023105158
0003d0 38 84 89 3d 7c 82 52 bc 21 2a 21 3c a3 13 23 3b
       0.06714672 -0.012848493 0.0098367045 0.002488353
0003e0 4b c5 a3 bc 05 d3 c7 bc 0d d2 c3 39 5a 74 89 3d
       -0.019991538 -0.024392614 0.00037349798 0.067116454
0003f0 a3 33 90 3c 6c f7 cb bc 64 dc 85 bb 3c 93 59 3d
       0.017602747 -0.024898253 -0.0040851105 0.05311893

action_model._continuous_distribution.mu.bias f4 [5]
000000 93 e4 98 3b c7 bc 4b 3c 71 14 8c bb 90 5b 0e 3c
       0.00466592 0.012435145 -0.0042748977 0.008688822
000010 05 c1 3a 3c
       0.0113985585
